…
 <span class="type">Dict</span>[<span class="built_in">str</span>, <span class="type">Any</span>]</span><br></pre></td></tr></table></figure>

<h2 id="model-state-dict-keys"><a href="#model-state-dict-keys" class="headerlink" title="model.state_dict().keys()"></a>model.state_dict().keys()</h2><figure class="highlight python"><table><tr><td class="code"><pre><span class="line"><span class="built_in">print</span>(model)</span><br></pre></td></tr></table></figure>

<figure class="highlight plaintext"><table><tr><td class="code"><pre><span class="line">Sequential(</span><br><span class="line">  (0): Conv2d(3, 16, kernel_size=(11, 11), stride=(3, 3))</span><br><span class="line">  (1): BatchNorm2d(16, eps=1e-05, momentum=0.1, affine=True, track_running_stats=True)</span><br><span class="line">  (2): ReLU(inplace=True)</span><br><span class="line">  (3): MaxPool2d(kernel_size=2, stride=2, padding=0, dilation=1, ceil_mode=False)</span><br><span class="line">  (4): Conv2d(16, 32, kernel_size=(5, 5), stride=(1, 1))</span><br><span class="line">  (5): BatchNorm2d(32, eps=1e-05, momentum=0.1, affine=True, track_running_stats=True)</span><br><span class="line">  (6): ReLU(inplace=True)</span><br><span class="line">  (7): MaxPool2d(kernel_size=2, stride=2, padding=0, dilation=1, ceil_mode=False)</span><br><span class="line">  (8): Conv2d(32, 64, kernel_size=(3, 3), stride=(1, 1), padding=(1, 1))</span><br><span class="line">  (9): BatchNorm2d(64, eps=1e-05, momentum=0.1, affine=True, track_running_stats=True)</span><br><span class="line">  (10): ReLU(inplace=True)</span><br><span class="line">  (11): Conv2d(64, 64, kernel_size=(3, 3), stride=(1, 1))</span><br><span class="line">  (12): BatchNorm2d(64, eps=1e-05, momentum=0.1, affine=True, track_running_stats=True)</span><br><span class="line">  (13): ReLU(inplace=True)</span><br><span class="line">  (14): MaxPool2d(kernel_size=2, stride=2, padding=0, dilation=1, ceil_mode=False)</span><br><span class="line">  (15): Flatten(start_dim=1, end_dim=-1)</span><br><span class="line">  (16): Linear(in_features=3136, out_features=2048, bias=True)</span><br><span class="line">  (17): ReLU(inplace=True)</span><br><span class="line">  (18): Linear(in_features=2048, out_features=1, bias=True)</span><br><span class="line">  (19): Sigmoid()</span><br><span class="line">)</span><br></pre></td></tr></table></figure>

<figure class="highlight python"><table><tr><td class="code"><pre><span class="line"><span class="built_in">print</span>(model.state_dict().keys())</span><br></pre></td></tr></table></figure>

<figure class="highlight plaintext"><ta
…
